…
The number of objects in the training subsample is:  6000
The number of objects in the validation subsample is:  2955
The number of training steps is:  600
The number of validation steps is:  295
The bands are:  [True, False, False, False]
Learning rate:  0.001
Model: "model"
__________________________________________________________________________________________________
Layer (type)                    Output Shape         Param #     Connected to                     
==================================================================================================
input_1 (InputLayer)            [(None, 200, 200, 1) 0                                            
__________________________________________________________________________________________________
conv2d (Conv2D)                 (None, 200, 200, 16) 160         input_1[0][0]                    
__________________________________________________________________________________________________
batch_normalization (BatchNorma (None, 200, 200, 16) 64          conv2d[0][0]                     
__________________________________________________________________________________________________
activation (Activation)         (None, 200, 200, 16) 0           batch_normalization[0][0]        
__________________________________________________________________________________________________
conv2d_1 (Conv2D)               (None, 200, 200, 16) 2320        activation[0][0]                 
__________________________________________________________________________________________________
batch_normalization_1 (BatchNor (None, 200, 200, 16) 64          conv2d_1[0][0]                   
__________________________________________________________________________________________________
activation_1 (Activation)       (None, 200, 200, 16) 0           batch_normalization_1[0][0]      
__________________________________________________________________________________________________
conv2d_2 (Conv2D)               (None, 200, 200, 16) 2320        activation_1[0][0]               
__________________________________________________________________________________________________
batch_normalization_2 (BatchNor (None, 200, 200, 16) 64          conv2d_2[0][0]                   
__________________________________________________________________________________________________
add (Add)                       (None, 200, 200, 16) 0           activation[0][0]                 
                                                                 batch_normalization_2[0][0]      
__________________________________________________________________________________________________
activation_2 (Activation)       (None, 200, 200, 16) 0           add[0][0]                        
__________________________________________________________________________________________________
conv2d_3 (Conv2D)               (None, 200, 200, 16) 2320        activation_2[0][0]               
__________________________________________________________________________________________________
batch_normalization_3 (BatchNor (None, 200, 200, 16) 64          conv2d_3[0][0]                   
__________________________________________________________________________________________________
activation_3 (Activation)       (None, 200, 200, 16) 0           batch_normalization_3[0][0]      
__________________________________________________________________________________________________
conv2d_4 (Conv2D)               (None, 200, 200, 16) 2320        activation_3[0][0]               
__________________________________________________________________________________________________
batch_normalization_4 (BatchNor (None, 200, 200, 16) 64          conv2d_4[0][0]                   
__________________________________________________________________________________________________
add_1 (Add)                     (None, 200, 200, 16) 0           activation_2[0][0]               
                                                                 batch_normalization_4[0][0]      
__________________________________________________________________________________________________
activation_4 (Activation)       (None, 200, 200, 16) 0           add_1[0][0]                      
__________________________________________________________________________________________________
conv2d_5 (Conv2D)               (None, 200, 200, 16) 2320        activation_4[0][0]               
__________________________________________________________________________________________________
batch_normalization_5 (BatchNor (None, 200, 200, 16) 64          conv2d_5[0][0]                   
__________________________________________________________________________________________________
activation_5 (Activation)       (None, 200, 200, 16) 0           batch_normalization_5[0][0]      
__________________________________________________________________________________________________
conv2d_6 (Conv2D)               (None, 200, 200, 16) 2320        activation_5[0][0]               
__________________________________________________________________________________________________
batch_normalization_6 (BatchNor (None, 200, 200, 16) 64          conv2d_6[0][0]                   
__________________________________________________________________________________________________
add_2 (Add)                     (None, 200, 200, 16) 0           activation_4[0][0]               
                                                                 batch_normalization_6[0][0]      
__________________________________________________________________________________________________
activation_6 (Activation)       (None, 200, 200, 16) 0           add_2[0][0]                      
__________________________________________________________________________________________________
conv2d_7 (Conv2D)               (None, 100, 100, 32) 4640        activation_6[0][0]               
__________________________________________________________________________________________________
batch_normalization_7 (BatchNor (None, 100, 100, 32) 128         conv2d_7[0][0]                   
__________________________________________________________________________________________________
activation_7 (Activation)       (None, 100, 100, 32) 0           batch_normalization_7[0][0]      
__________________________________________________________________________________________________
conv2d_8 (Conv2D)               (None, 100, 100, 32) 9248        activation_7[0][0]               
__________________________________________________________________________________________________
conv2d_9 (Conv2D)               (None, 100, 100, 32) 544         activation_6[0][0]               
__________________________________________________________________________________________________
batch_normalization_8 (BatchNor (None, 100, 100, 32) 128         conv2d_8[0][0]                   
__________________________________________________________________________________________________
add_3 (Add)                     (None, 100, 100, 32) 0           conv2d_9[0][0]                   
                                                                 batch_normalization_8[0][0]      
__________________________________________________________________________________________________
activation_8 (Activation)       (None, 100, 100, 32) 0           add_3[0][0]                      
__________________________________________________________________________________________________
conv2d_10 (Conv2D)              (None, 100, 100, 32) 9248        activation_8[0][0]               
__________________________________________________________________________________________________
batch_normalization_9 (BatchNor (None, 100, 100, 32) 128         conv2d_10[0][0]                  
__________________________________________________________________________________________________
activation_9 (Activation)       (None, 100, 100, 32) 0           batch_normalization_9[0][0]      
__________________________________________________________________________________________________
conv2d_11 (Conv2D)              (None, 100, 100, 32) 9248        activation_9[0][0]               
__________________________________________________________________________________________________
batch_normalization_10 (BatchNo (None, 100, 100, 32) 128         conv2d_11[0][0]                  
__________________________________________________________________________________________________
add_4 (Add)                     (None, 100, 100, 32) 0           activation_8[0][0]               
                                                                 batch_normalization_10[0][0]     
__________________________________________________________________________________________________
activation_10 (Activation)      (None, 100, 100, 32) 0           add_4[0][0]                      
__________________________________________________________________________________________________
conv2d_12 (Conv2D)              (None, 100, 100, 32) 9248        activation_10[0][0]              
__________________________________________________________________________________________________
batch_normalization_11 (BatchNo (None, 100, 100, 32) 128         conv2d_12[0][0]                  
__________________________________________________________________________________________________
activation_11 (Activation)      (None, 100, 100, 32) 0           batch_normalization_11[0][0]     
__________________________________________________________________________________________________
conv2d_13 (Conv2D)              (None, 100, 100, 32) 9248        activation_11[0][0]              
__________________________________________________________________________________________________
batch_normalization_12 (BatchNo (None, 100, 100, 32) 128         conv2d_13[0][0]                  
__________________________________________________________________________________________________
add_5 (Add)                     (None, 100, 100, 32) 0           activation_10[0][0]              
                                                                 batch_normalization_12[0][0]     
__________________________________________________________________________________________________
activation_12 (Activation)      (None, 100, 100, 32) 0           add_5[0][0]                      
__________________________________________________________________________________________________
conv2d_14 (Conv2D)              (None, 50, 50, 64)   18496       activation_12[0][0]              
__________________________________________________________________________________________________
batch_normalization_13 (BatchNo (None, 50, 50, 64)   256         conv2d_14[0][0]                  
__________________________________________________________________________________________________
activation_13 (Activation)      (None, 50, 50, 64)   0           batch_normalization_13[0][0]     
__________________________________________________________________________________________________
conv2d_15 (Conv2D)              (None, 50, 50, 64)   36928       activation_13[0][0]              
__________________________________________________________________________________________________
conv2d_16 (Conv2D)              (None, 50, 50, 64)   2112        activation_12[0][0]              
__________________________________________________________________________________________________
batch_normalization_14 (BatchNo (None, 50, 50, 64)   256         conv2d_15[0][0]                  
__________________________________________________________________________________________________
add_6 (Add)                     (None, 50, 50, 64)   0           conv2d_16[0][0]                  
                                                                 batch_normalization_14[0][0]     
__________________________________________________________________________________________________
activation_14 (Activation)      (None, 50, 50, 64)   0           add_6[0][0]                      
__________________________________________________________________________________________________
conv2d_17 (Conv2D)              (None, 50, 50, 64)   36928       activation_14[0][0]              
__________________________________________________________________________________________________
batch_normalization_15 (BatchNo (None, 50, 50, 64)   256         conv2d_17[0][0]                  
__________________________________________________________________________________________________
activation_15 (Activation)      (None, 50, 50, 64)   0           batch_normalization_15[0][0]     
__________________________________________________________________________________________________
conv2d_18 (Conv2D)              (None, 50, 50, 64)   36928       activation_15[0][0]              
__________________________________________________________________________________________________
batch_normalization_16 (BatchNo (None, 50, 50, 64)   256         conv2d_18[0][0]                  
__________________________________________________________________________________________________
add_7 (Add)                     (None, 50, 50, 64)   0           activation_14[0][0]              
                                                                 batch_normalization_16[0][0]     
__________________________________________________________________________________________________
activation_16 (Activation)      (None, 50, 50, 64)   0           add_7[0][0]                      
__________________________________________________________________________________________________
conv2d_19 (Conv2D)              (None, 50, 50, 64)   36928       activation_16[0][0]              
__________________________________________________________________________________________________
batch_normalization_17 (BatchNo (None, 50, 50, 64)   256         conv2d_19[0][0]                  
__________________________________________________________________________________________________
activation_17 (Activation)      (None, 50, 50, 64)   0           batch_normalization_17[0][0]     
__________________________________________________________________________________________________
conv2d_20 (Conv2D)              (None, 50, 50, 64)   36928       activation_17[0][0]              
__________________________________________________________________________________________________
batch_normalization_18 (BatchNo (None, 50, 50, 64)   256         conv2d_20[0][0]                  
__________________________________________________________________________________________________
add_8 (Add)                     (None, 50, 50, 64)   0           activation_16[0][0]              
                                                                 batch_normalization_18[0][0]     
__________________________________________________________________________________________________
activation_18 (Activation)      (None, 50, 50, 64)   0           add_8[0][0]                      
__________________________________________________________________________________________________
average_pooling2d (AveragePooli (None, 6, 6, 64)     0           activation_18[0][0]              
__________________________________________________________________________________________________
flatten (Flatten)               (None, 2304)         0           average_pooling2d[0][0]          
__________________________________________________________________________________________________
dense (Dense)                   (None, 1)            2305        flatten[0][0]                    
==================================================================================================
Total params: 275,809
Trainable params: 274,433
Non-trainable params: 1,376
__________________________________________________________________________________________________
The model name is:  RN20v1_Tr6000_Te2955_bs10_ep130_aug0_VIS1_NIR000_DBraw_ratio0.5.h5
…
